instance/models/Clear_sky_update.pt (torch, 289034 bytes, 5 tensors)

lstm.weight_ih_l0 f4 [512, 10]
0.35452524 0.30632803 -0.19507422 -0.17625555 0.19153807 0.4412056 -0.059231814 0.11704153
-0.30490685 0.13772918 0.025656695 -0.07107841 0.16248006 0.7292677 -0.11917717 -0.356134
0.16068095 -0.04174057 0.18149404 -0.03292887 -0.103836074 -0.0773589 0.016261948 0.12471924
0.112739414 -0.24247897 0.2239407 -0.52504283 -0.0929522 -0.063447416 0.03643534 0.085043766
0.29364428 -0.16107363 0.049913276 -0.4500233 0.16582005 -0.09507828 -0.08172325 0.10351809
-0.063295804 0.5035152 -0.29776245 -0.3430447 0.5472183 0.20786043 -0.28033468 0.14428334
-0.087806664 0.0621499 0.26776087 0.055393573 0.816343 -0.06178526 0.25129256 0.5260395
-0.4211805 0.49401116 -0.054785207 0.18553585 0.1622255 -0.060432173 0.16493082 -0.10432835
-0.24064508 0.39678857 -0.094246656 0.10291043 -0.24934079 0.2145578 -0.088648945 0.54649895
-0.6828777 0.2039922 0.1258027 -0.593062 0.06837134 -0.051011257 -0.07175655 0.08888104
-0.3438386 -0.246114 0.49424323 0.19746622 -0.00914403 -0.19878747 -0.2889471 -0.37021047
0.15499997 -0.10321419 -0.02323783 0.053765688 0.3210341 0.28814372 0.038156074 -0.4280472
-0.58658874 0.24243554 -0.2447536 0.1188417 0.16872732 -0.049328893 0.005486145 0.042628907
-0.2900768 -0.37429866 -0.12203196 0.05559842 -0.12213525 0.1507505 0.16691785 0.09906075
0.15766491 0.10259689 0.036975887 -0.18192852 -0.06723926 0.13406458 -0.3221203 0.31035307
-0.2181907 -0.07618699 0.33265975 0.16538449 0.101316825 0.11282351 0.18727197 -0.23558114
-0.0252721 -0.18883641 -0.016321955 0.54373354 -0.070550844 -0.29091904 -0.040047366 -0.43683618
-0.36441264 -0.04144944 0.09216228 0.016358228 0.18414518 0.45805255 -0.34225368 -0.22499137
0.015449641 -0.37528816 -0.37084454 0.13977124 -0.1778376 0.19159581 -0.039511107 -0.08233788
0.0826659 0.12587708 -0.02453498 0.2220058 0.058091376 -0.04815449 -0.101741515 -0.051149406
0.09676855 0.103327006 0.17378451 -0.08660639 0.17174813 0.7876826 -0.12575969 0.2651731
-0.22958516 0.104151465 -0.15755294 -0.36349505 0.49328816 0.1704082 0.083627455 0.3161133
0.12941238 0.32573345 -0.020604938 0.10685108 0.27165425 0.17056745 0.41345182 0.24182336
0.11564647 0.39201593 -0.10914192 0.34119442 -0.065075904 0.1463429 0.060199827 0.09746709
-0.12923431 -0.2806405 0.14235681 0.3442601 0.079159275 0.060807806 0.07256969 -0.11285355
0.08318578 0.15354747 -0.3228334 1.0182753 -0.28021362 -0.07805834 0.13350138 -0.06374718
0.21299358 0.15392505 0.17217991 0.44490013 -0.16250694 -0.095737234 0.01622512 0.23447737
-0.19793096 0.1388364 -0.2874401 0.2642368 0.28458923 -0.0050842203 -0.14245383 -0.015656663
-0.21664976 0.37862706 0.065580405 -0.063144565 -0.23152049 0.043140747 0.26826012 0.16991173
0.15550046 -0.4264467 -0.47987765 0.08976929 -0.6612786 0.45242858 0.0135798175 0.12893261
0.067815624 0.25747254 -0.5460019 -0.3072517 0.17077754 0.10946956 -0.34847608 0.30152026
-0.19788344 0.05589988 0.032631084 0.08470293 -0.2378234 -0.15287924 0.022529801 0.088784896
00000000: 5584 b53e 07d7 9c3e 89c1 47be 567c 34be
00000010: 8e22 443e b3e5 e13e 0f9d 72bd 78b3 ef3d
00000020: c01c 9cbe e108 0d3e fd2d d23c 8f91 91bd
00000030: 2c61 263e 4ab1 3a3f 2913 f4bd 3257 b6be
00000040: 8c89 243e 29f8 2abd 93d9 393e 6ce0 06bd
00000050: 02a8 d4bd 586e 9ebd c737 853c cd6c ff3d
00000060: ece3 e63d 684c 78be b650 653e 3569 06bf
00000070: b95d bebd b8f0 81bd 393d 153d 6d2b ae3d
00000080: 8b58 963e 7cf0 24be dd71 4c3d 7469 e6be
00000090: bbcc 293e 67b8 c2bd 855e a7bd 4b01 d43d
000000a0: 3ba1 81bd 5fe6 003f 5274 98be 8ea3 afbe
000000b0: 8016 0c3f 5dd9 543e 0788 8fbe 03bf 133e
000000c0: fbd3 b3bd e590 7e3d f417 893e 5fe4 623d
000000d0: dbfb 503f 8a12 7dbd 6ba9 803e 86aa 063f
000000e0: f8a4 d7be 08ef fc3e 7466 60bd 1cfd 3d3e
000000f0: 711e 263e ba87 77bd a0e3 283e 1aaa d5bd
00000100: aa6b 76be df27 cb3e 6404 c1bd b4c2 d23d
00000110: 3153 7fbe 0ab5 5b3e 948d b5bd 5be7 0b3f
00000120: 13d1 2ebf 55e3 503e 6cd2 003e e9d2 17bf
00000130: 4606 8c3d 2ef1 50bd 19f5 92bd 4307 b63d
00000140: 9d0b b0be 4f05 7cbe 730d fd3e 9634 4a3e
00000150: d7d0 15bc f18e 4bbe e0f0 93be 3a8c bdbe
00000160: 50b8 1e3e f661 d3bd 435d bebc 6939 5c3d
00000170: 955e a43e 9387 933e 8b49 1c3d 0129 dbbe
00000180: ae2a 16bf 0641 783e b0a0 7abe 4763 f33d
00000190: dbc6 2c3e 180d 4abd 1fc5 b33b a69b 2e3d
000001a0: f284 94be 13a4 bfbe e4eb f9bd 2bbb 633d
000001b0: 0c22 fabd 575e 1a3e 83ec 2a3e 5de0 ca3d
000001c0: e972 213e 511e d23d 0774 173d 784b 3abe
000001d0: bdb4 89bd 3a48 093e f4ec a4be 99e6 9e3e
000001e0: 626d 5fbe ed07 9cbd 6152 aa3e 8d5a 293e
000001f0: 327f cf3d 0310 e73d 39c4 3f3e 2f3c 71be
00000200: 6f07 cfbc 555e 41be 9fb5 85bc 1f32 0b3f
00000210: f67c 90bd 57f3 94be b508 24bd fea8 dfbe
00000220: 4b94 babe e3c6 29bd 94bf bc3d b101 863c
00000230: 8e90 3c3e dd85 ea3e e03b afbe 2364 66be
00000240: 7e20 7d3c c525 c0be 56df bdbe 3120 0f3e
00000250: 0f1b 36be b131 443e 66d6 21bd c3a0 a8bd
00000260: bd4c a93d ece5 003e 95fd c8bc 7d55 633e
00000270: 39f1 6d3d a43d 45bd db5d d0bd 0a82 51bd
00000280: 972e c63d 1c9d d33d 91f4 313e b15e b1bd
00000290: bede 2f3e 91a5 493f 26c7 00be c5c4 873e
000002a0: 5f18 6bbe 5d4d d53d 8f55 21be 061c babe
000002b0: 4490 fc3e 7d7f 2e3e df44 ab3d 9ad9 a13e
000002c0: ae84 043e 89c6 a63e b0cb a8bc bdd4 da3d
000002d0: 4416 8b3e 3ca9 2e3e f5af d33e 8ba0 773e
000002e0: 0ed8 ec3d 50b6 c83e cd85 dfbd 09b1 ae3e
000002f0: 8446 85bd eada 153e 1894 763d d39c c73d
00000300: 0056 04be 1db0 8fbe fcc5 113e dc42 b03e
00000310: 421e a23d 9b11 793d 6b9f 943d c31f e7bd
00000320: 4e5d aa3d 8c3b 1d3e 6b4a a5be d856 823f
00000330: 2978 8fbe 0ddd 9fbd 96b4 083e e28d 82bd
00000340: fd1a 5a3e 879e 1d3e ee4f 303e f3c9 e33e
00000350: 3868 26be e211 c4bd 8bea 843c d61a 703e
00000360: 6aae 4abe 212b 0e3e 592b 93be 0c4a 873e
00000370: aeb5 913e 8899 a6bb 6bdf 11be 6742 80bc
00000380: 6fd9 5dbe 68db c13e 054f 863d f051 81bd
00000390: b513 6dbe 5ab4 303d 6459 893e 57fd 2d3e
000003a0: 833b 1f3e 3957 dabe 86b2 f5be f6d8 b73d
000003b0: 8e49 29bf b8a4 e73e e27d 5e3c e906 043e
000003c0: ebe2 8a3d 71d3 833e c8c6 0bbf 1850 9dbe
000003d0: 4fe0 2e3e 9431 e03d 756b b2be dd60 9a3e
000003e0: f5a1 4abe 46f7 643d 2ca8 053d bb78 ad3d
000003f0: fa87 73be 608c 1cbe 6b90 b83c dbd4 b53d

lstm.weight_hh_l0 f4 [512, 128]
0.1257997 -0.08438952 -0.11880585 0.35679266 -0.22716315 0.10208365 -0.18516147 -0.03750128
-0.0034890992 0.08047498 0.07103649 0.07132217 0.22559157 -0.10608391 -0.009752958 -0.35773665
-0.020824077 -0.08834533 -0.07035121 -0.017174749 0.4452068 0.09776051 -0.26143873 0.025016325
0.3057095 0.1296589 -0.24323347 0.4557947 0.07674808 -0.19910763 0.10052146 -0.054554995
-0.07959321 -0.16062471 0.10257169 -0.41229317 0.44686362 0.02868118 -0.31853804 0.2411329
-0.344139 0.061414577 -0.017160876 -0.11527641 0.22035973 0.15097456 0.061241385 -0.028866507
0.46696284 0.3244912 -0.4921136 0.26663104 -0.286084 0.10228437 -0.22938499 -0.1772154
0.5194442 0.2626027 0.120476976 -0.17531605 0.060654614 -0.11496491 0.42962044 -0.14289953
0.123508245 0.005679263 0.023165442 -0.009215112 0.23135586 -0.23392826 -0.07732898 -0.21096268
-0.14198335 0.364067 0.2816086 -0.07775237 0.08535169 0.05591838 0.032070518 -0.2045302
-0.35621274 -0.006633985 -0.28628448 0.364324 0.0067608897 -0.13727084 -0.2657914 0.035302717
0.13083802 -0.08384875 0.13609499 0.06647186 -0.3347191 0.07928397 0.071482085 -0.094175965
-0.37768218 0.5161392 -0.2719266 -0.19296597 0.27790046 0.23167218 0.21312502 -0.39764675
0.11125263 0.43605292 -0.04249144 -0.24455053 -0.46018144 0.065659545 -0.2336342 0.2875609
0.65327644 0.13318469 0.18392144 -0.012771492 -0.09888121 0.26493874 -0.023856634 0.017758803
-7.8129483e-07 -0.28778195 -0.030596746 -0.15117158 0.35875744 -0.22494832 0.23858924 0.023745863
0.18282706 0.0418059 -0.55313116 0.24992885 -0.5152877 0.060374532 -0.09414934 -0.35025704
-0.6058024 0.20871753 -0.10572672 -0.08375436 0.8548531 -0.79249 -0.36715615 -0.32509974
0.10973062 0.43436342 0.091299675 0.7361116 0.28727943 0.14239077 0.07953143 0.2489045
-0.40519693 -0.45770547 -0.12256837 -0.08732489 -0.40631452 0.27808768 0.28714582 -0.37822846
-0.24491446 -0.21779932 -0.50328255 -1.159024 0.008360936 -0.17509003 0.099991456 -0.70402724
0.49486348 -0.032771498 0.2940055 0.3838549 0.12994415 0.42166832 0.20490085 -0.23651288
0.20504747 -0.65607864 -0.043861065 -0.0072797015 0.6411334 -0.27690732 0.040857963 -0.10742225
-0.21076797 0.13736865 -0.4260492 0.15455168 0.009670792 -0.043540057 0.2727797 0.20259872
0.25739235 0.5644151 0.054299433 0.26358503 0.105721325 0.3393897 0.17093278 0.5853728
-0.45703566 -0.17894767 0.20489855 0.016586995 -0.6999719 0.13292266 -0.08370441 -0.041941263
0.06109546 -0.07579215 0.23538971 -0.056835856 0.023738543 -0.12916398 0.19457102 0.13414176
0.033822432 1.4502608 0.28336078 0.69455945 -0.1473743 0.100336805 -0.1781654 0.21321681
-0.08204855 0.23861533 0.14514546 0.7042637 0.15942447 0.30195916 -0.18637304 0.03449459
0.3655111 -0.4082779 0.19599229 0.11005895 0.03100854 0.35497308 -0.021061316 0.21911237
0.35756934 -1.1119206 -0.02637296 -0.40763003 0.19391015 0.38539904 0.24559216 0.7996155
0.31615186 0.06975371 0.04335226 -0.20849687 0.13144696 -0.18379198 -0.1989261 -0.12378455
00000000: a3d1 003e 6ad4 acbd 7b50 f3bd 87ad b63e
00000010: 759d 68be 3c11 d13d f89a 3dbe f19a 19bd
00000020: 5fa9 64bb 11d0 a43d 947b 913d 5c11 923d
00000030: 7a01 673e 8542 d9bd dfca 1fbc 4229 b7be
00000040: 4197 aabc 65ee b4bd 4c14 90bd 0fb2 8cbc
00000050: 25f2 e33e aa36 c83d 4cdb 85be 09ef cc3c
00000060: f585 9c3e 4dc5 043e 3212 79be ec5d e93e
00000070: 192e 9d3d dfe2 4bbe 32de cd3d 0f75 5fbd
00000080: c401 a3bd ce7a 24be 1b11 d23d 1718 d3be
00000090: 4fcb e43e cbf4 ea3c 6b17 a3be 8beb 763e
000000a0: fd32 b0be da8d 7b3d f794 8cbc 0a16 ecbd
000000b0: fba5 613e 1399 1a3e 3fd8 7a3d 7479 ecbc
000000c0: c115 ef3e b623 a63e 50f6 fbbe dd83 883e
000000d0: 9a79 92be 787a d13d e6e3 6abe f477 35be
000000e0: 4cfa 043f dc73 863e a2bc f63d 0d86 33be
000000f0: f970 783d b972 ebbd 36f7 db3e 4154 12be
00000100: e4f1 fc3d 1c19 ba3b 74c5 bd3c fbfa 16bc
00000110: 8de8 6c3e e48a 6fbe a85e 9ebd 9a06 58be
00000120: 1564 11be fd66 ba3e 012f 903e a23c 9fbd
00000130: decc ae3d ac0a 653d 605c 033d 5d70 51be
00000140: 8461 b6be e661 d9bb e193 92be ad88 ba3e
00000150: 748a dd3b ba90 0cbe cf15 88be 9599 103d
00000160: 67fa 053e e5b8 abbd 7c5c 0b3e 6622 883d
00000170: 4d60 abbe a25f a23d 3365 923d 54df c0bd
00000180: 8f5f c1be b321 043f f739 8bbe df98 45be
00000190: f848 8e3e 793b 6d3e 723d 5a3e 5b98 cbbe
000001a0: 6bd8 e33d 5442 df3e 810b 2ebd 746b 7abe
000001b0: e79c ebbe 8378 863d ce3d 6fbe 2f3b 933e
000001c0: 203d 273f 9161 083e e755 3c3e 853f 51bc
000001d0: 3b82 cabd 0da6 873e fd6e c3bc e97a 913c
000001e0: 2cba 51b5 2858 93be 07a6 fabc b9cc 1abe
000001f0: 0eaf b73e da58 66be bd50 743e af86 c23c
00000200: 0437 3b3e aa3c 2b3d 019a 0dbf 59ed 7f3e
00000210: e5e9 03bf 494b 773d 5fd1 c0bd e454 b3be
00000220: de15 1bbf 0cba 553e 4087 d8bd 6887 abbd
00000230: a7d7 5a3f a0e0 4abf e4fb bbbe 7973 a6be
00000240: 73ba e03d e264 de3e 53fb ba3d cf71 3c3f
00000250: 4a16 933e e3ce 113e 60e1 a23d d2e0 7e3e
00000260: f975 cfbe 5f58 eabe 2005 fbbd 64d7 b2bd
00000270: 7508 d0be 8261 8e3e c704 933e 29a7 c1be
00000280: dbca 7abe c906 5fbe 20d7 00bf e65a 94bf
00000290: 4ffc 083c cd4a 33be 52c8 cc3d 213b 34bf
000002a0: bf5e fd3e 683b 06bd e487 963e a188 c43e
000002b0: 1410 053e e9e4 d73e 87d1 513e 6f30 72be
000002c0: f7f7 513e c5f4 27bf a9a7 33bd 908a eebb
000002d0: 5221 243f ccc6 8dbe ae5a 273d 3200 dcbd
000002e0: 8fd3 57be 5eaa 0c3e 1f23 dabe cc42 1e3e
000002f0: 3e72 1e3c 0f57 32bd c8a9 8b3e 0a76 4f3e
00000300: eec8 833e 827d 103f 1569 5e3d 9ef4 863e
00000310: 6c84 d83d 7dc4 ad3e 0109 2f3e feda 153f
00000320: 9400 eabe 0f3e 37be edd0 513e 73e1 873c
00000330: 5c31 33bf e11c 083e 386d abbd 9aca 2bbd
00000340: 3c3f 7a3d ea38 9bbd 000a 713e b7cc 68bd
00000350: 5577 c23c 9043 04be a03d 473e 755c 093e
00000360: 6489 0a3d 25a2 b93f aa14 913e a6ce 313f
00000370: 4ae9 16be 627d cd3d fe70 36be 8255 5a3e
00000380: 1209 a8bd 9457 743e 03a1 143e a04a 343f
00000390: 2b40 233e 649a 9a3e 93d8 3ebe 334a 0d3d
000003a0: 4524 bb3e cd09 d1be 34b2 483e 9666 e13d
000003b0: 9f05 fe3c 08bf b53e c888 acbc fe5e 603e
000003c0: 5413 b73e 6a53 8ebf 1b0c d8bc e2b4 d0be
000003d0: 6290 463e 0653 c53e 837c 7b3e 9ab3 4c3f
000003e0: a8de a13e 08db 8e3d 2492 313d 3480 55be
000003f0: 089a 063e f733 3cbe 49b3 4bbe c182 fdbd

lstm.bias_ih_l0 f4 [512]
0.018684102 -0.1053728 -0.12862647 -0.13683186 0.118377686 0.36231455 0.068239056 -0.24232268
-0.038942095 0.05366762 0.10925662 0.25716496 0.06835484 -0.08260086 0.04644617 -0.0032151116
0.1227431 -0.060969934 0.07728092 0.035958823 0.08613902 -0.09423899 0.04458036 0.13956103
0.073553465 -0.054769285 0.1219383 0.041535802 -0.08676403 0.0782818 0.33251178 -0.0035313207
-0.0009726525 0.02024065 0.053021632 -0.07871309 -0.037152935 0.12065389 0.09573005 -0.10102959
-0.05163618 0.09903123 -0.22594348 -0.092317246 0.074233726 0.084659226 -0.049253564 0.18232335
-0.034338307 -0.11247639 0.06714945 0.022148786 0.0125978645 -0.041360438 0.08893762 -0.06929315
-0.20215258 0.01723546 0.07400969 -0.046784267 -0.014235382 0.23247802 0.07703513 0.07998931
0.005516395 0.054903366 -0.10851744 0.15506084 0.0066726105 0.041672166 0.2712478 -0.07991377
0.05978347 0.04228894 0.00057237496 0.066570304 0.092904404 0.12490058 -0.027456041 -0.07267567
0.066057354 -0.00455248 0.13584621 0.16834259 0.14290753 -0.03751065 -0.11518846 -0.07354623
-0.036930874 -0.08766053 -0.08088003 -0.013109998 0.13651289 0.079368696 0.21583524 0.17505726
0.03577654 0.18707111 0.25857782 0.08463289 0.3494907 0.5034532 0.060974754 0.036594212
0.040175874 0.019129071 -0.1522525 0.0027218687 -0.04142443 0.20011702 0.087317936 0.14056918
-0.051097743 -0.26269564 -0.10433853 0.1973701 -0.028235901 0.017237708 0.051279817 -0.025306901
-0.11454325 0.20821713 0.050021082 0.08746686 0.082294874 0.05947172 0.20404598 0.051639542
-0.030951405 -0.18379994 -0.06791664 -0.011342836 0.08067865 -0.19705917 -0.0053782095 -0.2756894
-0.11277641 -0.022654932 0.09714284 -0.032937866 0.0132710785 0.031383634 -0.085048035 0.049150147
-0.13215673 -0.32968915 -0.028487865 0.08943997 -0.018844457 -0.20518371 0.08197977 0.030454416
0.2009537 0.14364056 0.012305399 0.007985712 0.020398103 -0.09804754 -0.33846536 0.00224532
-0.092 0.020835457 0.044293165 -0.07054935 0.06744455 0.08468904 -0.047904305 -0.21343692
-0.034189362 0.10350431 -0.07031699 -0.14376113 -0.09456247 -0.10440616 -0.07428129 -0.027715595
-0.17986807 -0.118230045 0.27841416 0.029746193 0.062819146 -0.17664616 0.096367605 -0.10126014
0.11752785 0.085783735 0.029006477 0.08450565 0.12313031 -0.009684633 0.022269687 -0.07041169
-0.010612893 0.12275189 0.120896466 -0.0012132289 -0.004038369 0.019217098 -0.0076635606 -0.092127495
0.054075997 0.10275453 -0.14797613 -0.1332356 -0.1106398 0.12925997 -0.054798752 0.023313666
0.04479049 0.073255405 -0.07055128 -0.07702772 0.0033886142 -0.07822429 -0.10131916 -0.0891306
-0.1783625 -0.34273767 -0.06059495 -0.17954287 0.13729802 0.0052040303 -0.10846516 0.12649322
-0.023646947 -0.012093519 -0.022832913 -0.0714421 0.13992101 -0.19604793 0.0792119 -0.0414934
-0.017267125 0.060985524 -0.13860679 0.12265004 -0.20021196 -0.03649508 -0.12061695 -0.02321349
0.17722651 -0.04653168 -0.09524422 -0.076137014 0.005760735 -0.026604932 0.01869955 0.075797416
-0.102939725 -0.16267717 0.14070135 0.061739173 -0.018714704 -0.042414848 -0.025047483 0.14387383
00000000: 670f 993c b2cd d7bd a8b6 03be a71d 0cbe
00000010: 0070 f23d 4b81 b93e ebc0 8b3d 7023 78be
00000020: bf81 1fbd 94d2 5b3d efc1 df3d 20ab 833e
00000030: 9ffd 8b3d a42a a9bd 573e 3e3d 9fb4 52bb
00000040: bc60 fb3d 9cbb 79bd 7645 9e3d 8f49 133d
00000050: a869 b03d 5f00 c1bd e599 363d 16e9 0e3e
00000060: 33a3 963d c255 60bd caba f93d 7221 2a3d
00000070: 57b1 b1bd 3552 a03d fc3e aa3e bb6d 67bb
00000080: 9bf9 7eba b8cf a53c 362d 593d 5434 a1bd
00000090: ad2d 18bd 6319 f73d 1e0e c43d 9ae8 cebd
000000a0: 7680 53bd e3d0 ca3d ba5d 67be d310 bdbd
000000b0: da07 983d d161 ad3d 1bbe 49bd f9b2 3a3e
000000c0: 53a6 0cbd 065a e6bd a785 893d 5f71 b53c
000000d0: 4667 4e3c 9069 29bd ed24 b63d 91e9 8dbd
000000e0: 1601 4fbe 6131 8d3c 6492 973d dca0 3fbd
000000f0: 853b 69bc b80e 6e3e 98c4 9d3d 6fd1 a33d
00000100: e0c2 b43b 5ae2 603d 643e debd 45c8 1e3e
00000110: eaa5 da3b 6fb0 2a3d fee0 8a3e d5a9 a3bd
00000120: 83df 743d 2b37 2d3d 6f0b 163a 0356 883d
00000130: aa44 be3d e0cb ff3d 7eeb e0bc fbd6 94bd
00000140: 1449 873d f82c 95bb 451b 0b3e 0062 2c3e
00000150: 5a56 123e c4a4 19bd ede7 ebbd 689f 96bd
00000160: d444 17bd 5d87 b3bd 6ea4 a5bd 51cb 56bc
00000170: 09ca 0b3e 0e8c a23d ea03 5d3e 3642 333e
00000180: 6c8a 123d 928f 3f3e 5064 843e 0254 ad3d
00000190: 72f0 b23e 4fe2 003f aac0 793d d0e3 153d
000001a0: 758f 243d 92b4 9c3c 14e8 1bbe 6161 323b
000001b0: aaac 29bd 7aeb 4c3e bfd3 b23d 5ef1 0f3e
000001c0: de4b 51bd 0b80 86be 70af d5bd 631b 4a3e
000001d0: fa4e e7bc 1836 8d3c c90a 523d 6b50 cfbc
000001e0: a795 eabd df36 553e e8e2 4c3d d321 b33d
000001f0: 378a a83d 9e98 733d 6ef1 503e fc83 533d
00000200: cd8d fdbc 0d36 3cbe e117 8bbd 4dd7 39bc
00000210: d93a a53d e1c9 49be b13b b0bb 2927 8dbe
00000220: 52f7 e6bd d696 b9bc d3f2 c63d dbe9 06bd
00000230: f06e 593c 208c 003d aa2d aebd aa51 493d
00000240: 1854 07be 04cd a8be 625f e9bc 4e2c b73d
00000250: b15f 9abc ae1b 52be 02e5 a73d 8a7b f93c
00000260: cfc6 4d3e 8316 133e 969c 493c 81d6 023c
00000270: ec19 a73c 26cd c8bd 554b adbe 3826 133b
00000280: 7f6a bcbd 1faf aa3c c06c 353d 2d7c 90bd
00000290: 5e20 8a3d 7371 ad3d 4e37 44bd 358f 5abe
000002a0: 250a 0cbd 11fa d33d 5b02 90bd 1e36 13be
000002b0: f8a9 c1bd e6d2 d5bd ca20 98bd d10b e3bc
000002c0: 562f 38be 9822 f2bd 4d8c 8e3e 4aae f33c
000002d0: 53a7 803d bbe2 34be 615c c53d 7a61 cfbd
000002e0: 71b2 f03d 62af af3d fe9e ed3c 4c11 ad3d
000002f0: be2b fc3d 4cac 1ebc eb6e b63c 0134 90bd
00000300: b3e1 2dbc 5865 fb3d 9198 f73d 3505 9fba
00000310: 4b54 84bb 2d6d 9d3c 9b1e fbbb 57ad bcbd
00000320: cb7e 5d3d f870 d23d 0e87 17be ea6e 08be
00000330: 1f97 e2bd ba5c 043e a874 60bd 4dfc be3c
00000340: 3c76 373d ee06 963d 317d 90bd b6c0 9dbd
00000350: 8313 5e3b 0e34 a0bd 6b80 cfbd 1b8a b6bd
00000360: a9a4 36be 507b afbe 6932 78bd 16da 37be
00000370: da97 0c3e 9286 aa3b fb22 debd 7087 013e
00000380: 3eb7 c1bc e523 46bc 170c bbbc 3c50 92bd
00000390: 7447 0f3e cac0 48be d939 a23d fcf4 29bd
000003a0: c973 8dbc f5cb 793d f0ee 0dbe f22f fb3d
000003b0: 5d04 4dbe dd7b 15bd 0506 f7bd 382a bebc
000003c0: de7a 353e 0198 3ebd 670f c3bd b9ed 9bbd
000003d0: 8cc4 bc3b 96f2 d9bc cc2f 993c ad3b 9b3d
000003e0: 10d2 d2bd d894 26be 0414 103e 37e2 7c3d
000003f0: 944f 99bc 31bb 2dbd 6130 cdbc a953 133e

lstm.bias_hh_l0 f4 [512]
0.045559548 0.059389886 -0.07780447 -0.21320146 0.098399736 0.3643083 0.08718556 -0.23561154
-0.11023087 0.033115428 0.25669518 0.2949399 -0.061760157 -0.051119313 0.062303964 0.032682814
0.0837386 -0.07562096 0.0867606 0.058771197 -0.05822835 -0.07270849 0.053842478 0.13624817
0.082398325 -0.08566989 -0.040863954 0.07489371 -0.05492069 0.106367245 0.39547226 -0.09888581
0.037657566 -0.0596071 -0.012481395 -0.17393869 -0.06413837 0.16259538 0.010373609 -0.052347075
0.015639866 0.13233048 -0.14595777 -0.089086466 0.030325579 0.11036961 0.03059652 0.044785365
-0.0660612 -0.26511854 0.15905745 -0.065507874 0.09918083 0.024256803 0.17892192 -0.034019604
-0.13694572 -0.06388185 -0.0019336964 -0.050602198 0.07593227 0.23548666 0.16156438 0.072433285
0.10336927 0.15182817 -0.16891186 0.13672386 0.075634554 -0.0021074335 0.18115821 -0.008213414
-0.01667011 0.04911894 -0.12960833 0.07677032 0.06006039 0.06740375 -0.120577544 -0.022281837
0.13695195 0.11734698 0.17061983 0.194647 0.14579515 0.10191929 -0.15439837 -0.053388517
-0.03024728 -0.10512262 0.08236686 -0.0754394 0.1580955 0.17798233 0.18507662 0.07939758
0.018135292 0.12843043 0.223979 0.1700675 0.2701824 0.35205424 0.1838208 -0.015958656
0.12606722 0.07063954 -0.035036385 0.050074007 -0.033445213 0.2851211 0.089552455 0.18290633
-0.0897564 -0.17274755 -0.16408779 0.1602555 0.07210709 0.03032816 -0.033264317 -0.03927282
-0.08280916 0.18849762 0.04246074 0.084117346 0.11381196 -0.037290346 0.14621972 0.07931819
0.043653466 -0.14515029 0.010103885 -0.1403161 0.026609605 -0.061599765 0.045307893 -0.21115357
-0.15073967 0.021465162 0.22088628 0.07296203 -0.09949345 -0.035665788 -0.10692008 -0.0715814
0.025829064 -0.24691582 -0.0370693 0.0044223918 -0.03957235 -0.10034658 -0.06276121 -0.04302655
0.20947956 0.18524256 0.04717959 -0.025526384 0.09056164 -0.16823387 -0.25740507 0.057428658
-0.14236954 0.08931159 0.045991533 0.060296204 0.024071088 0.103896655 -0.043143656 -0.20080388
0.0181902 0.03534652 -0.0062835882 -0.19886892 -0.15487503 0.020084178 -0.12675981 0.06321546
-0.1784372 -0.19176777 0.25691944 0.028957805 -0.057930704 -0.09263665 0.015728692 -0.050189517
0.12895367 0.08329003 0.09162766 0.059665747 0.012300286 0.06718586 -0.03597823 -0.06811482
0.00022697808 0.20793608 0.022367887 -0.09008506 0.043812856 0.054809563 -0.05575054 -0.12453565
-0.040976867 0.13517036 -0.06978422 -0.24787976 -0.21487528 0.11029623 -0.05696788 0.10539524
-0.03352154 0.06647404 -0.06049496 -0.105194785 -0.08689441 -0.036391024 -0.017111415 -0.024485745
-0.3154711 -0.28648102 -0.06757311 -0.04530388 0.04823529 0.16684479 -0.04311066 0.016749099
-0.024104578 -0.12900238 -0.038442068 0.022474144 0.18156944 -0.20054998 0.09050546 -0.044718217
-0.0062130387 0.07526325 -0.054453097 0.14659604 -0.093312 -0.0647839 -0.19877164 0.06950489
0.2548104 -0.0587783 -0.02202843 0.005654614 0.018768985 -0.033099793 0.045568336 0.1083632
-0.099366575 -0.1809487 0.06451162 -0.039757997 -0.009096605 -0.022298919 -0.061407566 0.0037846148
00000000: a69c 3a3d cf42 733d f357 9fbd 7c51 5abe
00000010: cd85 c93d 9e86 ba3e 588e b23d 2744 71be
00000020: b9c0 e1bd 0ba4 073d 8d6d 833e 5d02 973e
00000030: 38f8 7cbd 7c62 51bd 7132 7f3d 6ade 053d
00000040: 257f ab3d 29df 9abd 8baf b13d 11ba 703d
00000050: da80 6ebd 30e8 94bd ee89 5c3d a484 0b3e
00000060: 74c0 a83d b273 afbd f660 27bd e061 993d
00000070: 84f4 60bd 12d7 d93d 577b ca3e a584 cabd
00000080: d23e 1a3d 9326 74bd c47e 4cbc fc1c 32be
00000090: fa5a 83bd 677f 263e 12f6 293c e369 56bd
000000a0: 2d1f 803c a481 073e f475 15be f772 b6bd
000000b0: 596d f83c 7609 e23d 8ea5 fa3c dc70 373d
000000c0: 184b 87bd 9ebd 87be f5df 223e fe28 86bd
000000d0: 521f cb3d 34b6 c63c 4f37 373e 2458 0bbd
000000e0: 803b 0cbe 7dd4 82bd 1674 fdba 4044 4fbd
000000f0: 6182 9b3d 6a23 713e 2271 253e e757 943d
00000100: 45b3 d33d d878 1b3e 3bf7 2cbe 5701 0c3e
00000110: 4ae6 9a3d de1c 0abb 8a81 393e 8e91 06bc
00000120: c18f 88bc f130 493d 0cb8 04be c239 9d3d
00000130: e201 763d fa0a 8a3d 5cf1 f6bd 6688 b6bc
00000140: 223d 0c3e 9d53 f03d f7b6 2e3e 8b51 473e
00000150: 534b 153e 10bb d03d 9b1a 1ebe ebad 5abd
00000160: 25c9 f7bc 874a d7bd f5af a83d f97f 9abd
00000170: c9e3 213e 0041 363e ba84 3d3e 339b a23d
00000180: 7790 943c 4483 033e c05a 653e 2d26 2e3e
00000190: 5955 8a3e 7440 b43e 853b 3c3e babb 82bc
000001a0: c417 013e 77ab 903d 5082 0fbd 671a 4d3d
000001b0: d9fd 08bd 65fb 913e 4767 b73d cc4b 3b3e
000001c0: 34d2 b7bd bce4 30be a106 28be 051a 243e
000001d0: e2ac 933d c372 f83c 2a40 08bd 89dc 20bd
000001e0: d997 a9bd 8505 413e 50eb 2d3d b745 ac3d
000001f0: 3f16 e93d c3bd 18bd 9fba 153e 9371 a23d
00000200: facd 323d 47a2 14be c48a 253c 06af 0fbe
00000210: 63fc d93c 0950 7cbd c594 393d a438 58be
00000220: 805b 1abe b5d7 af3c 0330 623e 1e6d 953d
00000230: 39c3 cbbd 4a16 12bd eaf8 dabd 4599 92bd
00000240: 7997 d33c 80d7 7cbe fad5 17bd b6e9 903b
00000250: 9e16 22bd 8282 cdbd f388 80bd 9c3c 30bd
00000260: cf81 563e 3ab0 3d3e 633f 413d b51c d1bc
00000270: 6278 b93d 8045 2cbe 99ca 83be 503a 6b3d
00000280: 52c9 11be ffe8 b63d 9e61 3c3d 27f9 763d
00000290: bb30 c53c c5c7 d43d 67b7 30bd 889f 4dbe
000002a0: 9d03 953c 83c7 103d 8fe6 cdbb 4ba4 4bbe
000002b0: 8f97 1ebe 9387 a43c 53cd 01be 1b77 813d
000002c0: 3eb8 36be c55e 44be f28a 833e eb38 ed3c
000002d0: bf48 6dbd 49b8 bdbd 75d9 803c 8693 4dbd
000002e0: 6e0c 043e f793 aa3d 48a7 bb3d 1264 743d
000002f0: 2487 493c bd98 893d e95d 13bd c87f 8bbd
00000300: f700 6e39 32ed 543e dc3c b73c 847e b8bd
00000310: 1c75 333d fe7f 603d ae5a 64bd 8c0c ffbd
00000320: 5cd7 27bd 196a 0a3e 07eb 8ebd 31d4 7dbe
00000330: 4408 5cbe fde2 e13d 2757 69bd 76d9 d73d
00000340: e24d 09bd 8b23 883d 90c9 77bd 5d70 d7bd
00000350: b2f5 b1bd c10e 15bd 3d2d 8cbc 5496 c8bc
00000360: 6e85 a1be a4ad 92be c563 8abd 9090 39bd
00000370: 5e92 453d 5cd9 2a3e ce94 30bd 6835 893c
00000380: f776 c5bc 3319 04be 6e75 1dbd b21b b83c
00000390: 57ed 393e f95c 4dbe ed5a b93d 732a 37bd
000003a0: bf96 cbbb 9e23 9a3d 360a 5fbd 461d 163e
000003b0: 5d1a bfbd 6cad 84bd cb8a 4bbe 9458 8e3d
000003c0: 8276 823e 84c1 70bd f774 b4bc 574a b93b
000003d0: 6ac1 993c a693 07bd dda5 3a3d 87ed dd3d
000003e0: b480 cbbd 9e4a 39be ab1e 843d 48d9 22bd
000003f0: ed09 15bc 39ac b6bc 8086 7bbd 4d07 783b

fc.weight f4 [1, 128]
0.19089527 0.014922899 -0.01770163 -0.04353276 0.18109553 -0.3679149 -0.1984008 -0.0914286
-0.013128532 -0.21222194 0.18750505 0.18914793 -0.014108926 -0.11311879 0.14802766 -0.05166543
-0.22078435 0.008301558 -0.22616325 0.016908778 0.02923451 -0.24144502 -0.13102858 -0.123091735
0.16721967 -0.13639261 -0.21293283 0.0817 -0.0071896776 0.17006996 0.6155186 -0.10494209
0.10104951 -0.037122782 -0.0071616457 0.009114811 0.13801123 0.13195533 0.097682424 -0.07177376
-0.08668174 0.17470375 -0.00411157 0.03696983 0.04920637 -0.29010943 0.11421498 0.14498827
-0.030211054 0.012187524 -0.006861409 -0.23395705 -0.18523893 0.0036565128 -0.17459625 -0.31295297
0.024228489 0.027981147 -0.07489856 -0.06793443 -0.124851 -0.23285781 0.13964789 -0.22388431
-0.10635998 0.1659548 0.17044784 0.0077563515 0.17829928 -0.18081924 -0.27874482 -0.026853587
-0.14676267 0.11944405 -0.013570897 0.3284385 0.15249301 0.15282644 0.0131786745 -0.1289969
-0.23622207 -0.18818127 -0.2059668 0.29813713 0.22034183 -0.14297104 0.049317062 0.048032336
0.37521306 0.023513686 0.21185231 -0.016789962 0.18400711 -0.17064153 -0.24424458 -0.02655494
-0.06821057 -0.083249554 -0.23768815 0.032829043 0.13661648 0.2285364 0.013925178 -0.0003058511
0.2127121 0.069309756 0.14830612 0.019115571 0.058750194 -0.07832115 0.071338 0.20394737
0.039196663 0.0377283 0.07543746 0.06886555 0.14403664 0.05290854 -0.06630647 -0.085551806
-0.020627989 -0.17963992 -0.13534456 -0.2345154 0.25513613 -0.23995876 0.21292837 0.16449492
00000000: 0d7a 433e 2d7f 743c 0203 91bc 684f 32bd
00000010: 1b71 393e 575f bcbe 9429 4bbe eb3e bbbd
00000020: 0e19 57bc b550 59be 5301 403e ffaf 413e
00000030: 2029 67bc d3aa e7bd 9094 173e 219f 53bd
00000040: 4b15 62be 4203 083c 5797 67be 4784 8a3c
00000050: 367d ef3c 5d3d 77be 5b2c 06be 8517 fcbd
00000060: a23b 2b3e 81aa 0bbe 100b 5abe 5452 a73d
00000070: 6397 ebbb d226 2e3e a192 1d3f e1eb d6bd
00000080: 0cf3 ce3d 0f0e 18bd 3dac eabb 4a56 153c
00000090: d152 0d3e 4c1f 073e b90d c83d 1ffe 92bd
000000a0: 3286 b1bd 8ae5 323e 59ba 86bb ad6d 173d
000000b0: 9e8c 493d 3989 94be 8be9 e93d ce77 143e
000000c0: 2c7d f7bc 2eae 473c acd5 e0bb 7092 6fbe
000000d0: 46af 3dbe 1ba2 6f3b 5cc9 32be 5f3b a0be
000000e0: d37a c63c b838 e53c 6b64 99bd 3521 8bbd
000000f0: e2b1 ffbd 4772 6ebe dbff 0e3e ee41 65be
00000100: 43d3 d9bd 0ef0 293e e189 2e3e fe28 fe3b
00000110: 1694 363e ae28 39be a4b7 8ebe 0efc dbbc
00000120: f448 16be 159f f43d 7858 5ebc 1729 a83e
00000130: 2127 1c3e 897e 1c3e 5eeb 573c c317 04be
00000140: 33e4 71be 97b2 40be f6e8 52be 6ea5 983e
00000150: 4aa1 613e 0067 12be b000 4a3d 8ebd 443d
00000160: ed1b c03e c69f c03c d0ef 583e 1a8b 89bc
00000170: 5c6c 3c3e a7bc 2ebe 401b 7abe bf89 d9bc
00000180: fcb1 8bbd be7e aabd 8664 73be bf77 063d
00000190: 31e5 0b3e 7205 6a3e 6e26 643c a45a a0b9
000001a0: 33d1 593e 46f2 8d3d 8fdd 173e 4298 9c3c
000001b0: 0ba4 703d d766 a0bd a819 923d 94d7 503e
000001c0: ae8c 203d fd88 1a3d f47e 9a3d 6209 8d3d
000001d0: 577e 133e a0b6 583d b0cb 87bd c935 afbd
000001e0: 07fc a8bc 87f3 37be c497 0abe ce24 70be
000001f0: 34a1 823e c0b7 75be e509 5a3e 5b71 283e
