instance/models/KNMI_GPU_sin_cos_with_clear_sky.pt (torch, 289034 bytes, 5 tensors)

lstm.weight_ih_l0 f4 [512, 10]
0	0xbe6bfb11	-0.23044993
1	0xbd8c85f6	-0.068614885
2	0x3e224cb0	0.15849566
3	0x3eab335e	0.33437628
4	0xbe52be0e	-0.20580313
5	0x3e895be0	0.26827908
6	0x3d98725d	0.07443688
7	0x3e31fa49	0.17380632
8	0xbe45e63d	-0.1932611
9	0x3de3bec0	0.11120367
10	0xbe9dc66c	-0.30815446
11	0xbe280b83	-0.16410641
12	0xbd8f5dd5	-0.07000319
13	0x3f17c6e4	0.5928786
14	0xbddd747f	-0.108132355
15	0x3e289c48	0.16465867
16	0x3e4723fb	0.19447319
17	0x3c349052	0.011020737
18	0x3d8f3114	0.06991783
19	0xbe2fa45d	-0.17152543
20	0x3e585996	0.21127924
21	0x3e9706b7	0.2949731
22	0xbd86b5e3	-0.06577661
23	0xbd621354	-0.055194214
24	0xbe018578	-0.1264857
25	0x3e9be5fa	0.30448896
26	0x3e14db0d	0.14536686
27	0x3f0d92fd	0.5530241
28	0x3d527a57	0.051386204
29	0xbe167a91	-0.14695193
30	0x3daa8c31	0.08327521
31	0x3d2ba8d0	0.04190904
32	0xbf02bd97	-0.5107054
33	0xbe85925a	-0.2608822
34	0x3ef5354b	0.47892222
35	0x3e2d88eb	0.16946761
36	0xbd2d468f	-0.042303618
37	0x3f0b6d6d	0.54463845
38	0xbd1ccc5a	-0.038280822
39	0x3da23bf0	0.079215884
40	0xbd970a0d	-0.07374964
41	0x3f06e557	0.52693695
42	0x3e727d1b	0.23680536
43	0x3e33df3f	0.1756563
44	0xbd717a08	-0.05895427
45	0x3f0c5262	0.54813206
46	0xbddffa2f	-0.109363906
47	0x3e9b7558	0.30362964
48	0xbdd6f0d1	-0.10495151
49	0x3e094420	0.13404894
50	0x3b2dca49	0.0026518276
51	0xbdb8bb0a	-0.0902005
52	0x3e2a4b98	0.16630399
53	0x3b8d6743	0.0043152883
54	0x3ddae527	0.106882386
55	0xbc8c2a9e	-0.017110165
56	0x3ec49c5d	0.38400546
57	0xbec2735d	-0.3797864
58	0xbd797067	-0.06089821
59	0xbe94aa71	-0.29036286
60	0x3ba05a81	0.0048936014
61	0x3d28e66b	0.04123537
62	0x3ea9226f	0.33034083
63	0x3cc32029	0.023819046
64	0xbe7510fa	-0.23932257
65	0xbdb6ccc2	-0.08925773
66	0x3e394c5d	0.18095537
67	0x3e4eabc6	0.20182714
68	0xbe2c3b99	-0.1681961
69	0x3e97e2a1	0.29665092
70	0x3e3a5b2b	0.1819884
71	0xbdebd5d8	-0.11515397
72	0xbce2037f	-0.027589558
73	0x3ab3cd4e	0.0013717802
74	0xbe0e2eb5	-0.13885005
75	0x3d5e00a7	0.05419984
76	0x3e0e0643	0.13869576
77	0xbe27b715	-0.16378434
78	0xbebe9bf2	-0.37228352
79	0x3ebfdaa5	0.374715
80	0xbd0e7ef1	-0.03478903
81	0x3df7c95d	0.12098954
82	0xbe26c1af	-0.16284822
83	0x3cd01ce0	0.025404394
84	0x3e521873	0.20517139
85	0x3d5ade46	0.053434633
86	0xbeb526a4	-0.35381043
87	0x3e12e75c	0.14346069
88	0x3e0709ae	0.13187286
89	0xbdb4464a	-0.08802469
90	0xbd03eba3	-0.032207143
91	0x3e15f5dc	0.14644569
92	0xbdceefe8	-0.10104352
93	0xbe65466e	-0.22390148
94	0xbdb2cced	-0.08730493
95	0x3ea82594	0.3284117
96	0xbe86903f	-0.26281926
97	0x3e6352cf	0.22199558
98	0xbe58b336	-0.21162114
99	0x3e4561db	0.1927561
100	0xbc19c76f	-0.009385928
101	0xbe6a0ef7	-0.22857271
102	0x3e4f0b2c	0.20219105
103	0xbec6ac0e	-0.38803142
104	0x3dbfd0e0	0.093660116
105	0x3d205b6e	0.039149694
106	0xbe942230	-0.28932333
107	0x3ebadd47	0.36496946
108	0xbe6baa26	-0.23014125
109	0x3efc42dd	0.49269763
110	0x3e1457ff	0.14486693
111	0xbdbcfcb0	-0.09227884
112	0x3e8b8133	0.2724701
113	0x3ee4d6b4	0.44695055
114	0x3ea58c06	0.32333392
115	0xbdc843d2	-0.09778561
116	0x3e1321b7	0.1436833
117	0x3d94885d	0.07252572
118	0xbd21998f	-0.039453086
119	0xbba4c0a4	-0.0050278474
120	0xbce7eab7	-0.028310163
121	0xbe88d3c0	-0.26724052
122	0x3e424572	0.18971804
123	0xbe557421	-0.20845081
124	0xbd3700af	-0.044678386
125	0x3ee0d7f2	0.43914753
126	0x3f053067	0.5202698
127	0x3eecc831	0.46246484
128	0xbe70ba3b	-0.23508541
129	0xbdd49c87	-0.10381418
130	0x3dd27a01	0.10277177
131	0x3db7da62	0.089772
132	0x3e4b7325	0.19868143
133	0xbe7df90c	-0.24802035
134	0xbca46013	-0.020065343
135	0x3e8420c5	0.2580625
136	0x3e123462	0.14277795
137	0x3debfbff	0.11522674
138	0xbde46502	-0.11152078
139	0xbe005f45	-0.12536342
140	0x3d72f69f	0.059317227
141	0x3d738a08	0.05945781
142	0xbd076521	-0.03305543
143	0xbd1d9f25	-0.03848185
144	0x3e229ac7	0.15879355
145	0x3d89f4db	0.067361556
146	0xbe9b8f33	-0.3038269
147	0x3ec91558	0.39274096
148	0xbece0cb7	-0.40244076
149	0x3e7a8d8e	0.24468061
150	0x3dde7c8a	0.10863598
151	0xbe2130f1	-0.15741326
152	0xbec596fd	-0.38591757
153	0x3e08688f	0.13321136
154	0x3e574970	0.21024108
155	0x3d6bf50d	0.057606746
156	0xbd92cb99	-0.071677394
157	0x3eb58e55	0.35460153
158	0xbe2c9725	-0.16854532
159	0x3e368c09	0.17826857
160	0xbcbe6629	-0.023242073
161	0x3df2ffed	0.1186522
162	0x3e14687b	0.14492981
163	0xbdaf7886	-0.0856791
164	0x3eac3833	0.33636627
165	0x3c678efa	0.014133209
166	0xbea33d1c	-0.3188256
167	0x3efe65ce	0.49687046
168	0xbeafb163	-0.34315023
169	0x3e5b1748	0.213956
170	0x3eb164dd	0.34647265
171	0x3da38c5f	0.07985758
172	0x3eab5e5c	0.33470428
173	0xbd02e602	-0.031957634
174	0xbea3a625	-0.31962696
175	0xbe145c30	-0.14488292
176	0xbd90f5eb	-0.07078155
177	0x3f10630b	0.5640113
178	0xbca7ab07	-0.020467294
179	0xbe1b914f	-0.1519215
180	0x3ee33abe	0.44380754
181	0x3d772238	0.060335368
182	0x3e2cc1b4	0.16870767
183	0x3d6131a3	0.054978978
184	0x3ef5659d	0.47929087
185	0x3da1a0d9	0.078920074
186	0xbdfc9332	-0.12332763
187	0x3ea6578c	0.32488668
188	0xbddb1163	-0.10696676
189	0x3b00f6e3	0.0019678406
190	0xbde277b1	-0.110579856
191	0x3dbd9880	0.09257603
192	0xbe5defb3	-0.21673469
193	0xbe962786	-0.2932703
194	0xbea5cee8	-0.3238442
195	0x3eeded9c	0.46470344
196	0xbecca6e3	-0.39971074
197	0x3e3bb07b	0.1832904
198	0x3cb643f4	0.0222492
199	0x3d835fbd	0.06414745
200	0x3ecaacf9	0.39585093
201	0x3daed65c	0.085369796
202	0x3eebfe63	0.4609252
203	0x3e0c68a3	0.1371179
204	0x3eac4c96	0.3365218
205	0x3cf9627a	0.030442465
206	0xbe126052	-0.14294556
207	0x3e0ddaff	0.13853072
208	0xbdc9c778	-0.09852499
209	0x3ec84dd4	0.39121878
210	0xbb9bfe1b	-0.0047605163
211	0xbdf8b2a6	-0.121434495
212	0x3c127d37	0.008940986
213	0xbececc83	-0.40390405
214	0xbe0630b2	-0.13104513
215	0x3e84c085	0.2592813
216	0xbe35ab4a	-0.17741123
217	0x3ea9dbea	0.33175594
218	0xbe22dde2	-0.15904954
219	0x3d3c0487	0.045902755
220	0x3e23e7b9	0.16006364
221	0xbdc942bb	-0.09827181
222	0xbb0a1aab	-0.0021073024
223	0x3e7dd95e	0.2478995
224	0xbe4b13f9	-0.19831838
225	0xbdc20122	-0.09472872
226	0xbdfaef1d	-0.122526385
227	0x3edc91a2	0.4307986
228	0x3e6a8551	0.22902419
229	0xbe0cfcd2	-0.13768318
230	0x3ed0c5a1	0.4077578
231	0x3e94faea	0.29097682
232	0x3daa9db6	0.08330862
233	0xbcd1ce69	-0.02561112
234	0x3dc56215	0.09637848
235	0xbead9d86	-0.33909243
236	0xbdb6efb5	-0.08932439
237	0x3eac7a5d	0.33687106
238	0xbe4b0025	-0.19824274
239	0x3e7c600b	0.24646012
240	0xbccf4186	-0.025299799
241	0xbe572f99	-0.21014251
242	0xbd9b29e4	-0.075763494
243	0xbc9ccd76	-0.01914094
244	0x3c42be7f	0.011886238
245	0xbec36721	-0.3816462
246	0x3caf3b98	0.021390721
247	0x3e0aaa2b	0.13541476
248	0xbe42a057	-0.19006477
249	0x3af8ce09	0.0018982302
250	0xbedd45b9	-0.43217257
251	0x3de6614e	0.11249028
252	0x3e0c567a	0.13704863
253	0xbe3d8a14	-0.18509704
254	0x3e9be0a4	0.30444825
255	0x3ddf98bc	0.10917804

lstm.weight_hh_l0 f4 [512, 128]
0	0x3e4d3cf0	0.20042777
1	0x3e796457	0.24354683
2	0xbf48a52f	-0.7837705
3	0x3d8a36f8	0.06748766
4	0xbdd9d759	-0.106367774
5	0x3e296405	0.1654206
6	0x3ba77045	0.005109819
7	0x3cb74fd0	0.022376925
8	0x3e082adc	0.132976
9	0x3da2bd36	0.07946245
10	0x3e219bdc	0.15782112
11	0xbe34dfcb	-0.17663495
12	0x3ddeba66	0.108753964
13	0x3e509e0c	0.2037279
14	0xbd883ecb	-0.06652602
15	0x3d4c0b42	0.049815424
16	0x3ce4f41c	0.027948432
17	0xbda3f882	-0.080063835
18	0x3e05ba2d	0.13059302
19	0x3dd49009	0.10379035
20	0xbecdcbc3	-0.4019452
21	0x3e1b16f6	0.15145478
22	0xbda0dfe7	-0.07855206
23	0xbc19c4d1	-0.009385304
24	0xbe1a3d5d	-0.1506247
25	0xbc126538	-0.008935265
26	0x3f0c10c7	0.547131
27	0x3d7f592e	0.062340908
28	0x3d5a96ad	0.053366352
29	0xbcde1c53	-0.027113115
30	0x3e1f4c00	0.15556335
31	0x3e8ddaba	0.27705938
32	0x3e3b3a26	0.182839
33	0x3f0e8a66	0.5567993
34	0x3b9e90b0	0.0048390254
35	0x3e128060	0.14306784
36	0xbdb0c0ab	-0.086304985
37	0xbd7cadfa	-0.061689354
38	0xbd93e2a9	-0.07220966
39	0x3d8b45c4	0.06800416
40	0xbd9d364d	-0.07676373
41	0x3bacc7d0	0.005272843
42	0x3e8b66e1	0.27226928
43	0xbd218dff	-0.03944206
44	0x3e45c0ae	0.19311783
45	0x3da257d9	0.07926912
46	0x3eb5db9e	0.35519117
47	0xbec87740	-0.3915348
48	0x3e89f4cf	0.26944587
49	0xbe053a5c	-0.13010544
50	0x3d67bf73	0.056579065
51	0x3e878592	0.26469094
52	0xbeaa11e9	-0.3321679
53	0x3f49b2ef	0.78788656
54	0xbd3ab53a	-0.045582987
55	0x3bb52665	0.0055282586
56	0x3ee0c7c3	0.43902406
57	0x3d89b62a	0.06724198
58	0xbde62a1e	-0.11238502
59	0x3ee1f785	0.44134155
60	0x3e532ec5	0.2062331
61	0x3f2045f4	0.6260674
62	0x3eae9a86	0.34102267
63	0x3edb4361	0.42824844
64	0x3d9ddca3	0.07708099
65	0x3e614666	0.21999511
66	0xbdb81e9e	-0.08990215
67	0x3e7e5d39	0.24840249
68	0xbf05aa59	-0.52213055
69	0x3c799fe2	0.015235873
70	0x3cc4c8e0	0.024021566
71	0xbe8bb7ec	-0.2728876
72	0xbca542c0	-0.02017343
73	0x3e4abf00	0.19799423
74	0x3e5a46ed	0.21316119
75	0xbc84808b	-0.016174575
76	0x3e080900	0.13284683
77	0xbd3006aa	-0.042975105
78	0xbbea10f0	-0.0071431324
79	0x3ca9c8ca	0.020725626
80	0x3e3e8ce6	0.18608436
81	0x3c8ee281	0.01744199
82	0xbe9ebde6	-0.31004256
83	0x3e985a08	0.29756188
84	0x3e098ef0	0.13433433
85	0x3b3c44bb	0.002872749
86	0xbe80eada	-0.25179178
87	0x3e1fcb08	0.15604794
88	0xbc92577f	-0.017863987
89	0xbf39fcd7	-0.7265143
90	0xbe1fa34c	-0.15589637
91	0xbe8ca696	-0.27470845
92	0xbbfa2507	-0.0076338085
93	0x3e01d6f5	0.12679656
94	0xbe52fa76	-0.20603356
95	0xbdc9479e	-0.09828113
96	0xbf115e5a	-0.56784594
97	0xbea99c3d	-0.33127013
98	0x3e3bee68	0.18352664
99	0xbdd12c16	-0.10213487
100	0xbdfc8166	-0.12329368
101	0xbd224c99	-0.03962383
102	0x3ee3d71d	0.44500056
103	0xb9837322	-0.00025072048
104	0xbe2c8586	-0.1684781
105	0xbdab5fcb	-0.083678804
106	0x3d0ae512	0.033909865
107	0xbe25dd66	-0.16197738
108	0x3f375bb9	0.7162433
109	0xbec5d5f2	-0.3863979
110	0xbe0bc1c2	-0.13648131
111	0x3ea600ff	0.32422635
112	0x3e4aecf2	0.1981695
113	0xbe078d2d	-0.13237448
114	0x3c830839	0.015995132
115	0x3e720c82	0.23637584
116	0xbe03cc27	-0.12870847
117	0x3eb0344d	0.34414902
118	0x3da0295f	0.07820391
119	0x3e3c7e41	0.18407537
120	0xbe6c0f4e	-0.23052713
121	0x3ec7fd00	0.3906021
122	0x3e3b3c80	0.18284798
123	0xbf433300	-0.76249695
124	0xbe995011	-0.29943898
125	0xbd8ae297	-0.067815
126	0x3c43f4ce	0.011960221
127	0xbdddd619	-0.108318515
128	0x3e102440	0.14076328
129	0x3d9ca9f4	0.076496035
130	0x3e14977b	0.1451091
131	0xbf101c28	-0.56292963
132	0x3dc399e5	0.095508374
133	0x3eaed485	0.34146515
134	0xbe96b810	-0.29437304
135	0xbe5c768d	-0.21529599
136	0x3f01a964	0.50649095
137	0xbec04804	-0.37554944
138	0xbc9b231f	-0.018937645
139	0x3c8ed081	0.017433407
140	0x3f37304c	0.7155807
141	0x3c946b07	0.01811744
142	0x3d9381e1	0.07202507
143	0x3f5fab54	0.873708
144	0xbeec73a4	-0.46181977
145	0x3ee97525	0.45597187
146	0x3e643824	0.22287041
147	0xbead4862	-0.33844286
148	0x3ed3c901	0.4136429
149	0x3db85bb9	0.0900187
150	0xbdfda91e	-0.12385772
151	0x3f1bc65b	0.6084954
152	0xba6e3cc5	-0.0009088035
153	0x3e07949e	0.13240287
154	0x3ee6d591	0.45084813
155	0xbe70a43d	-0.23500152
156	0xbe4d0c01	-0.2002411
157	0x3e443aa1	0.1916299
158	0xbe6e8c49	-0.23295702
159	0xbeccb86a	-0.39984447
160	0xbe8f70ce	-0.2801575
161	0x3db02ab6	0.086018965
162	0xbdcbd2f2	-0.09952344
163	0x3f25971e	0.6468371
164	0x3e1dfa05	0.15427406
165	0x3d01eb1f	0.03171837
166	0xbd3fbe90	-0.046812594
167	0xbdb9fa09	-0.090808935
168	0x3a7187c1	0.00092136493
169	0xbe47ec22	-0.19523671
170	0xbcf95d87	-0.030440105
171	0x3e1817e3	0.14852862
172	0xb94143bd	-0.00018431149
173	0xbe04622c	-0.12928075
174	0x3e4bb6ac	0.19893903
175	0x3ebd76ed	0.37004796
176	0xbec4c448	-0.38431
177	0xbe0769aa	-0.13223901
178	0x3ca26aa0	0.019826233
179	0x3e690b49	0.22758211
180	0x3eb16b11	0.34651998
181	0xbea5455d	-0.32279482
182	0xbf2259bf	-0.6341819
183	0x3bf13b27	0.007361788
184	0x3f33ad62	0.70186436
185	0xbe75b2c6	-0.23993978
186	0xbdd22b52	-0.10262169
187	0x3e534150	0.20630383
188	0x3ee4e955	0.44709268
189	0x3e605881	0.21908762
190	0xbead44d7	-0.33841583
191	0xbe4475e8	-0.19185603
192	0x3d799c0f	0.060939845
193	0xbf3cc1a8	-0.73732996
194	0x3da3c483	0.07996466
195	0x3f050f81	0.5197678
196	0x3e80ebf2	0.25180012
197	0xbe67de84	-0.22643477
198	0x3dbb25d1	0.09138072
199	0xbda13e89	-0.07873256
200	0x3e19092b	0.14944904
201	0x3e5fa1c7	0.21839057
202	0xbdf14d7c	-0.11782357
203	0x3d463b64	0.048396483
204	0x3cc46903	0.023975855
205	0xbdb62373	-0.0889348
206	0x3ebde227	0.37086603
207	0xbe618fa3	-0.2202745
208	0xbe6d3568	-0.23164904
209	0xbe5dcb64	-0.21659619
210	0xbe6a7f65	-0.2290016
211	0xbec740af	-0.38916537
212	0x3b40b7f0	0.002940651
213	0x3dd68819	0.10475177
214	0x3ed59e40	0.41722298
215	0xbdd58201	-0.10425187
216	0x3e69b8c6	0.22824392
217	0x3e534561	0.20631935
218	0xbdf3d4bd	-0.11905811
219	0x3f13eb85	0.5778125
220	0xbe9be494	-0.3044783
221	0xbe6a28d4	-0.22867137
222	0x3c2fcf66	0.0107306
223	0x3dcbedad	0.099574424
224	0x3f0ce916	0.5504316
225	0xbeecdfbd	-0.4626445
226	0xbe8af297	-0.27138206
227	0x3e2cef9e	0.16888282
228	0xbecb8443	-0.39749345
229	0xbda556f8	-0.080732286
230	0x3e1a97ae	0.15096924
231	0x3e1d847d	0.15382572
232	0x3e92f5e6	0.2870323
233	0xbd940791	-0.07228006
234	0x3e82d781	0.2555504
235	0xbe160b5a	-0.14652768
236	0xbee94ff9	-0.45568827
237	0x3e641318	0.22272909
238	0x3e806f46	0.25084895
239	0x3ed411b2	0.4141975
240	0xbe6af966	-0.229467
241	0x3e289935	0.16464694
242	0x3e92f77b	0.28704438
243	0xbef5076f	-0.47857234
244	0xbf08d8ba	-0.534557
245	0x3ea39d5b	0.3195599
246	0x3e349e24	0.17638451
247	0xbf270451	-0.6524096
248	0x3ed8605a	0.4226101
249	0x3eea93b0	0.45815802
250	0x3e09d899	0.13461532
251	0xbec448b1	-0.3833671
252	0xbe8ff879	-0.28119257
253	0x3e23fe06	0.16014871
254	0x3c5cf67a	0.013486499
255	0xbe1df89d	-0.1542687

lstm.bias_ih_l0 f4 [512]
0	0x3de3c767	0.11122017
1	0xbce845c4	-0.02835358
2	0x3dc41a14	0.095752865
3	0x3e3daff5	0.18524154
4	0x3ec4f157	0.38465378
5	0xbcc820ae	-0.024429645
6	0xbd1826a2	-0.037146218
7	0xbde96647	-0.11396461
8	0x3e536d19	0.20647086
9	0xbd1cacc2	-0.038250692
10	0x3e25c352	0.1618779
11	0xbd755bfc	-0.059902176
12	0xbd917a1b	-0.07103368
13	0x3d665644	0.056234613
14	0x3e079d18	0.1324352
15	0x3e482965	0.19547041
16	0x3c78ecaf	0.0151931485
17	0x3d2e308a	0.04252676
18	0x3cd81845	0.02637876
19	0x3de83817	0.11338823
20	0x3e172dce	0.14763567
21	0x3d8fa00e	0.0701295
22	0xbcdab6e6	-0.02669854
23	0xbbfcaafe	-0.0077108135
24	0xbe09de7c	-0.13463777
25	0xbe115f7d	-0.14196582
26	0xbcea0eac	-0.02857145
27	0xbd5769d3	-0.052591156
28	0x3e7e2046	0.24816999
29	0x3b8e1670	0.004336171
30	0xbd37d529	-0.04488102
31	0x3cd63060	0.026146114
32	0xbc12f983	-0.008970621
33	0x39c67eea	0.0003786006
34	0x3e6cb2c5	0.2311507
35	0x3cf4ffee	0.029907193
36	0x3ddd161e	0.10795234
37	0x3d60fb50	0.05492717
38	0xbcf3138b	-0.029672405
39	0xbca52abd	-0.02016198
40	0x3d6a9012	0.057266302
41	0x3cfde352	0.030992184
42	0x3e6df482	0.23237804
43	0xbd970f52	-0.07375969
44	0xbd452e78	-0.04814002
45	0x3e19b34f	0.15009807
46	0xbdb2526a	-0.087071255
47	0x3d52217d	0.05130147
48	0x3e3170c8	0.17328179
49	0xbd853519	-0.06504268
50	0x3dfedfff	0.124450676
51	0x3def1046	0.11673026
52	0xbe2d0351	-0.16895796
53	0x3d86c31c	0.06580183
54	0x3d2e8e87	0.042616393
55	0xbc4eb673	-0.0126167415
56	0x3d8af5b2	0.06785144
57	0x3e1b728f	0.1518042
58	0x3e4ecf8e	0.20196363
59	0xbd1f8f3c	-0.03895496
60	0xbda6820c	-0.08130273
61	0xbe4bd6b1	-0.19906117
62	0x3c3d69a5	0.011560832
63	0x3e1ada20	0.1512227
64	0xbe0201d5	-0.12696011
65	0xbe376781	-0.17910577
66	0xbef32280	-0.4748726
67	0xbc897dca	-0.016783614
68	0xbe90f72a	-0.2831357
69	0x3bda3d7e	0.0066601625
70	0x3dafadec	0.08578095
71	0xbe0d52f1	-0.13801171
72	0x3d59a617	0.05313691
73	0xbe06319b	-0.1310486
74	0x3c841323	0.016122406
75	0x3d51b7dc	0.051200733
76	0x3dde10e0	0.108430624
77	0x3b3f1741	0.0029158148
78	0x3d199f78	0.037505597
79	0x3cc8bb81	0.024503471
80	0xbd2eb7ef	-0.04265588
81	0x3e20e767	0.15713273
82	0xbde089a3	-0.10963752
83	0x3d088a71	0.033335153
84	0xbdaffca0	-0.08593106
85	0x3df327a9	0.11872799
86	0xbd6c2c4c	-0.057659432
87	0x3e0a8eae	0.1353099
88	0x3b244dbc	0.0025070747
89	0xbe053138	-0.13007057
90	0xbdd05363	-0.10172155
91	0xbdde4f02	-0.10854913
92	0x3e05453a	0.13014689
93	0x3da1a54a	0.078928545
94	0x3e18865f	0.14895009
95	0x3dd809cd	0.10548744
96	0xbe2e7cd1	-0.17039801
97	0xbce0cf71	-0.027442666
98	0x3ddef080	0.108857155
99	0x3d945795	0.072432674
100	0xbd902727	-0.07038718
101	0xbd9a1620	-0.07523751
102	0xbe1651a4	-0.14679581
103	0x3e20fb27	0.15720807
104	0xbdbd2be0	-0.09236884
105	0x3e192d90	0.14958787
106	0xb9ad50a6	-0.0003305722
107	0xbde011e4	-0.10940912
108	0xbe5c1fa6	-0.21496448
109	0xbd39bd8c	-0.04534678
110	0xbd4e8a07	-0.050424602
111	0x3cf2688e	0.029590871
112	0x3e8b7b7a	0.27242643
113	0x3d9ba94d	0.07600651
114	0xbd0711aa	-0.03297583
115	0x3dd70549	0.10499055
116	0x3e21108e	0.15728971
117	0x3d40e4b4	0.04709311
118	0xbd9dd58c	-0.077067465
119	0xbdcadc93	-0.099053524
120	0x3ccb7790	0.024837285
121	0x3d27f871	0.041008417
122	0x3d87bacc	0.066274256
123	0x3eaea551	0.341105
124	0xbd16f799	-0.03685722
125	0x3e265081	0.16241647
126	0xbe08053a	-0.13283244
127	0x3cfd540c	0.030923866
128	0x3dc3d9f1	0.095630534
129	0x3ce1a7ff	0.027545927
130	0xbde24999	-0.11049194
131	0x3d1509cd	0.0363863
132	0x3db85999	0.090014644
133	0xbd830142	-0.06396724
134	0x3d12fade	0.035883777
135	0x3e361296	0.17780527
136	0x3d4966b5	0.049170215
137	0x3d0a6d17	0.033795442
138	0x3d5ac21c	0.053407773
139	0x3c4f8042	0.012664856
140	0xbd5b861b	-0.05359469
141	0xbd370cc4	-0.04468991
142	0xbdb94888	-0.09047037
143	0x3dd37f21	0.10326982
144	0xbd313344	-0.04326178
145	0xbd13cfe4	-0.03608693
146	0x3cb989e9	0.022648768
147	0xbe354cf7	-0.17705141
148	0xbdff5a1c	-0.12468359
149	0x3cfe14b9	0.03101574
150	0x3ec5d70e	0.38640636
151	0xbda7ba99	-0.081898876
152	0x3ae23bd0	0.0017260257
153	0xbe4c9f8d	-0.19982739
154	0x3dd1828e	0.102299795
155	0xbdaa4501	-0.08313943
156	0x3dfe6d47	0.12423187
157	0xbe104b4d	-0.14091225
158	0x3dcc5891	0.0997783
159	0x3d39d4e7	0.045369055
160	0xbe351159	-0.17682399
161	0x3df08279	0.11743636
162	0x3c0605f4	0.00818013
163	0xbd09e80f	-0.033668574
164	0x3dc2c518	0.09510249
165	0xbd9f82d9	-0.07788629
166	0xbd4dfb17	-0.050288286
167	0x3bde46ff	0.0067833657
168	0xbd63de1a	-0.055631734
169	0xb9d795ad	-0.00041119513
170	0x3c89766e	0.016780104
171	0xbda9a09d	-0.08282588
172	0xbd43de47	-0.047819402
173	0x3d198608	0.037481338
174	0x3d37cff5	0.044876058
175	0xbd5f2f9c	-0.054488763
176	0xbe90649f	-0.28201768
177	0x3dea4d11	0.114404805
178	0x3e353c33	0.17698745
179	0xbc7406c9	-0.014894196
180	0xbe0248c0	-0.12723064
181	0xbd0fef71	-0.03514046
182	0xbd8cee6a	-0.068814114
183	0x3d31a40f	0.04336935
184	0x3da06d5d	0.078333594
185	0xbda0ae65	-0.07845763
186	0xbda0c773	-0.07850542
187	0xbe23e7ff	-0.16006468
188	0xbdd5730f	-0.10422336
189	0xbeb1ff3c	-0.3476504
190	0xbd4d4e15	-0.050123293
191	0x3d928ec4	0.07156137
192	0x3cb7f8d1	0.022457512
193	0x3dc50142	0.096193805
194	0xbe78f532	-0.24312285
195	0x3e43c3b2	0.1911762
196	0xbe102849	-0.14077868
197	0x3c93b1e2	0.018029157
198	0xbd17b789	-0.037040267
199	0x3c20b2d4	0.009808261
200	0xbdb78de2	-0.08962609
201	0xbb1d6895	-0.0024018635
202	0x3dbbc8f9	0.09169192
203	0xbc8ab7cb	-0.016933342
204	0xbdafaf65	-0.08578376
205	0xbdc032eb	-0.09384712
206	0x3db72ceb	0.08944114
207	0x3d1630fe	0.036667816
208	0xbdbf7f3e	-0.093504414
209	0xbe802483	-0.25027856
210	0xbe0c4275	-0.13697226
211	0xbdd143b5	-0.10217992
212	0x3d43e6b4	0.047827438
213	0xbdfa3dbc	-0.12218806
214	0x3ddaea84	0.106892616
215	0xbe1f9381	-0.15583612
216	0xbdcde0a9	-0.10052616
217	0xbcd38a7e	-0.025822874
218	0x3ca00965	0.01953573
219	0xbe3279e8	-0.17429316
220	0x3d91292d	0.07087932
221	0x3d77fc06	0.060543083
222	0x3d4fa3f2	0.05069346
223	0x3cd16312	0.025559936
224	0xbe2d351f	-0.16914795
225	0x3e526e2a	0.20549837
226	0xbdd7b0c3	-0.105317615
227	0x3dab4bb2	0.08364047
228	0xbe13b555	-0.14424641
229	0x3d33fca0	0.043942094
230	0xbe8e1b9a	-0.27755433
231	0xbe3219c0	-0.17392635
232	0x3d5d1de4	0.053983584
233	0xbe0f9781	-0.14022638
234	0x3d5539ec	0.05205719
235	0xbdb11789	-0.08647067
236	0x3e5452ff	0.20734785
237	0xbdffaa9b	-0.12483712
238	0xbd458198	-0.048219293
239	0xbc530aaf	-0.012880965
240	0xbcdbdafe	-0.026837822
241	0x3c2ee505	0.01067472
242	0xbdfea77b	-0.12434288
243	0xbe42e45d	-0.19032426
244	0x3ba6f39c	0.0050949585
245	0xbe2450e6	-0.16046485
246	0xbe1e81b3	-0.15479164
247	0xbe2104fa	-0.15724555
248	0xbc26a425	-0.010170971
249	0x3d0d4145	0.034486074
250	0x3dc0d0c4	0.09414819
251	0xbcade87a	-0.021229018
252	0xbd70e889	-0.058815513
253	0xbd9d1a04	-0.07670978
254	0xbdea1869	-0.11430437
255	0x3dbb5b2c	0.09148249

lstm.bias_hh_l0 f4 [512]
0	0x3cda5c72	0.02665541
1	0xbd60e76f	-0.054908212
2	0x3dbc9053	0.09207215
3	0x3e1c30f2	0.15253046
4	0x3eef10a4	0.46692383
5	0xbd8e4529	-0.06946785
6	0xbcda4957	-0.0266463
7	0x3d228ce9	0.039685164
8	0x3df4ab40	0.11946726
9	0x3d067ba8	0.03283277
10	0x3e347992	0.176245
11	0x3ca5c70a	0.02023651
12	0xbe422f61	-0.18963386
13	0x3de6c369	0.1126774
14	0x3dc9ff82	0.098631874
15	0x3d6c8414	0.057743147
16	0x3d3e3502	0.04643727
17	0xb9727155	-0.00023121138
18	0xbc8c3ee8	-0.01711984
19	0x3de05267	0.10953217
20	0x3e75084a	0.23928943
21	0x3db8b249	0.0901838
22	0x3df1ddcd	0.11809883
23	0xbd73db5e	-0.059535377
24	0xbd91380f	-0.070907705
25	0xbd6afca5	-0.057369847
26	0x3e0b899f	0.13626717
27	0xbc003c98	-0.007826947
28	0x3df8eeeb	0.12154945
29	0xbda197af	-0.078902595
30	0x3ceb6ff3	0.028739905
31	0xbc648496	-0.013947627
32	0x3c948f54	0.01813475
33	0x3c449890	0.011999264
34	0x3e7d85e1	0.24758102
35	0xbd1fa5c1	-0.038976435
36	0x3d9986ec	0.074964374
37	0x3de657da	0.11247225
38	0x3a7781c9	0.0009441642
39	0x3de8b176	0.11361973
40	0x3d2f315e	0.04277169
41	0xbddcbcbd	-0.107781865
42	0x3e5f36f6	0.2179831
43	0x3bafda19	0.0053665754
44	0xbdd12f6e	-0.102141246
45	0x3e20a1c3	0.15686707
46	0xbdc40af2	-0.095724
47	0xbd428359	-0.047488544
48	0x3e42b747	0.19015227
49	0xbdbc383f	-0.091904156
50	0x3e18e899	0.14932479
51	0x3deedc1e	0.11663078
52	0xbdbcbad0	-0.09215319
53	0x3d0d974a	0.03456811
54	0xbc205a1c	-0.009787109
55	0x3dc61b1d	0.0967314
56	0x3c9febb4	0.019521572
57	0x3de933e3	0.1138685
58	0x3e0cc4ed	0.13746996
59	0x3d563939	0.052300666
60	0xbdc46e64	-0.09591368
61	0xbd6ea0fd	-0.058259
62	0xbd91860d	-0.07105646
63	0x3d2165ce	0.03940373
64	0xbe6b2911	-0.22964884
65	0xbe27f43d	-0.16401763
66	0xbedd7bfa	-0.4325865
67	0xbdec156b	-0.11527523
68	0xbe15c2e5	-0.14625128
69	0x3cb6ffc3	0.022338754
70	0x3e1b9316	0.15192828
71	0xbe3626af	-0.17788194
72	0x3e2d14fb	0.16902535
73	0xbe0c3738	-0.1369294
74	0xbd9d1538	-0.07670063
75	0x3d883b6e	0.0665196
76	0x3dd0535a	0.10172148
77	0xbd8f3dc7	-0.06994205
78	0x3c63181e	0.01386073
79	0xbdd0b4d3	-0.101907395
80	0xbd80e01b	-0.06292745
81	0x3d9d2154	0.076723725
82	0xbdeb1fbe	-0.11480664
83	0x3ca70c6f	0.020391671
84	0x3d927d7c	0.071528405
85	0x3daa917e	0.08328532
86	0xbcac6e8a	-0.021048803
87	0x3e127314	0.14301711
88	0x3e0ee5a8	0.13954794
89	0xbdce865f	-0.10084223
90	0xbe3d6e92	-0.1849921
91	0xbd8cbdec	-0.06872162
92	0x3e815479	0.2525976
93	0x3c8174f1	0.015802832
94	0x3d54cc9b	0.05195294
95	0x3dd1f6db	0.10252162
96	0xbe85cab7	-0.26131222
97	0x3d1b2631	0.03787822
98	0x3e3201af	0.17383455
99	0x3e244f23	0.16045813
100	0xbda59857	-0.08085697
101	0xbd0ead3b	-0.034833174
102	0xbe389ee8	-0.18029368
103	0x3e209d37	0.15684973
104	0x3cc05908	0.023479953
105	0x3e024cf0	0.12724662
106	0xba8dff41	-0.0010833518
107	0xbe1eef68	-0.15521014
108	0xbe3c8404	-0.18409735
109	0xbc581a2f	-0.013189836
110	0xbd6d8492	-0.057987757
111	0x3ce7791b	0.02825599
112	0x3e892243	0.26783952
113	0x3db71168	0.08938867
114	0xbd38c06b	-0.04510538
115	0xbc022071	-0.007942305
116	0x3e1a8c3f	0.15092562
117	0x3c44387e	0.011976359
118	0xbe083094	-0.13299781
119	0xbd9ad879	-0.0756082
120	0xbd4e8dda	-0.05042825
121	0x3d3423d3	0.043979477
122	0x3e2fa8ce	0.17154238
123	0x3eb3bc3b	0.35104546
124	0xbd5d93dc	-0.054096088
125	0x3df51bc9	0.1196819
126	0xbdb3c82e	-0.087784156
127	0x3da2be9f	0.07946514
128	0x3e227e0d	0.15868397
129	0x3d0d5ca8	0.034512192
130	0xbcc121f0	-0.023575753
131	0x3d2f4aec	0.04279606
132	0x3daa0839	0.083023496
133	0xbe5d2d84	-0.21599394
134	0x3d4b8ee3	0.049696814
135	0x3db5c1e6	0.08874874
136	0x3d37cd81	0.04487372
137	0xbd716822	-0.0589372
138	0xbc05e685	-0.008172636
139	0xbd1d4aa9	-0.03840128
140	0xbe234b1d	-0.15946622
141	0x3d90c082	0.07067968
142	0xbd8effcc	-0.06982383
143	0x3d827ace	0.063710794
144	0xbd3688f1	-0.04456419
145	0xbd33ef86	-0.0439296
146	0x3d78c8c4	0.06073834
147	0xbe2e0c9c	-0.16996998
148	0xbe302499	-0.17201461
149	0x3c057aa6	0.008146917
150	0x3ec24ce9	0.37949303
151	0xbe190873	-0.1494463
152	0xbd95100e	-0.07278453
153	0xbe8b0b87	-0.27157232
154	0x3db7a181	0.08966351
155	0xbdc3a338	-0.09552616
156	0x3d4cbb5a	0.04998336
157	0xbdfa8127	-0.12231665
158	0xbcf16642	-0.029467706
159	0xbd155513	-0.036458086
160	0xbe1fd14a	-0.15607181
161	0xbc4a1af1	-0.012335525
162	0x39a9e1d5	0.0003240245
163	0x3cad050d	0.021120572
164	0x3d0ac67e	0.033880703
165	0x3c37ee5d	0.011226264
166	0x3ce3ae52	0.027793083
167	0xbda571be	-0.08078335
168	0x3d828a8f	0.06374084
169	0x3c0d326d	0.0086179795
170	0x3d831444	0.0640035
171	0xbe073c43	-0.13206582
172	0x3d893b9b	0.06700822
173	0xbd562bfb	-0.052288037
174	0xbd928216	-0.07153718
175	0xbc90dd66	-0.017683696
176	0xbe9d7bb0	-0.3075843
177	0x3d8b8e24	0.068142205
178	0x3e110c03	0.14164738
179	0x3c794a6c	0.015215497
180	0xbe1d1295	-0.1533912
181	0xbd8680db	-0.06567546
182	0x3db989a2	0.090594545
183	0x3e033450	0.12812924
184	0x3dbc6040	0.09198046
185	0xbcfe26e6	-0.031024408
186	0xbdf97d8c	-0.12182149
187	0xbd486a50	-0.048929513
188	0xbdf3df18	-0.11907786
189	0xbecff819	-0.4061897
190	0xbccd5bde	-0.02506822
191	0x3d20e024	0.039276257
192	0xbdf613fb	-0.1201553
193	0x3d670c23	0.05640806
194	0xbe5c4111	-0.21509196
195	0x3db29149	0.08719117
196	0xbe80337b	-0.25039276
197	0xba217332	-0.0006158828
198	0x3d37b5b5	0.044851024
199	0x3ba4c6f4	0.0050286
200	0x3b9a8b3f	0.0047163065
201	0xbd9601eb	-0.073245846
202	0x3e28f816	0.16500887
203	0xbd4a45fe	-0.049383156
204	0xbd8ceed6	-0.06881492
205	0xbda985b8	-0.08277458
206	0x3ddcce35	0.10781518
207	0x3db8629e	0.09003185
208	0xbd9e13fb	-0.07718655
209	0xbe55c0eb	-0.20874374
210	0xbdd8e8ec	-0.10591301
211	0xbd5cb756	-0.05388578
212	0x3e0a304d	0.13494988
213	0xbcb576f7	-0.022151453
214	0xbbca25c8	-0.0061690547
215	0xbe286564	-0.16444927
216	0xbe247a46	-0.16062269
217	0xbd329095	-0.043594915
218	0x3e2618b7	0.16220365
219	0xbe82c638	-0.25541854
220	0x3dbb6e82	0.09151937
221	0xbd969461	-0.0735252
222	0xbcd675f2	-0.026179288
223	0x3a355290	0.0006916905
224	0xbe6a3eba	-0.22875491
225	0x3dff6129	0.12469704
226	0xbdc188e9	-0.09449942
227	0x3c4128f2	0.011789547
228	0xbe18b033	-0.14910965
229	0xbda8161c	-0.08207342
230	0xbe4f986c	-0.20272988
231	0xbdbb468b	-0.091443144
232	0xbd8081cc	-0.06274757
233	0xbe327ad5	-0.17429669
234	0xbdcb0f62	-0.099150434
235	0xbd3d0d37	-0.04615518
236	0x3e78a2b7	0.24280821
237	0xbdb8be08	-0.090206206
238	0xbde2c50d	-0.11072741
239	0x3bcd2043	0.0062599494
240	0xbd502d53	-0.050824475
241	0x3dcd2660	0.10017085
242	0xbe0ca89d	-0.13736196
243	0xbe8f6e18	-0.28013682
244	0x3d71187e	0.05886125
245	0xbe2a4086	-0.16626176
246	0xbe15d39c	-0.14631504
247	0xbd3474e9	-0.044056807
248	0xbd365e82	-0.044523723
249	0xbcf86c40	-0.030325055
250	0x3d5d4f71	0.05403084
251	0xbcda5efb	-0.026656618
252	0xbd8e1f7f	-0.06939601
253	0xbd296154	-0.041352585
254	0xbddbb3a7	-0.10727625
255	0x3cbf1fed	0.023330653

fc.weight f4 [1, 128]
0	0xbd1639a9	-0.036676083
1	0x3d2d66bc	0.042334303
2	0xbe3c1b79	-0.18369855
3	0x3e3d7488	0.18501484
4	0xbe3a6857	-0.18203865
5	0xbd55e208	-0.052217513
6	0x3dd03bde	0.10167669
7	0x3dcf2f17	0.101164035
8	0x3e36e24c	0.17859763
9	0xbda70469	-0.08155138
10	0x3e61b7b8	0.2204274
11	0x3d77d80d	0.060508776
12	0x3c00e5e9	0.007867315
13	0x3e7aa00d	0.24475117
14	0xbe6d5f26	-0.23180827
15	0x3d34b907	0.04412177
16	0x3e848222	0.25880533
17	0x3dd85dea	0.10564788
18	0xbe60f583	-0.21968655
19	0x3e716742	0.23574546
20	0xbe5c59b4	-0.21518594
21	0x3e3967cb	0.18106
22	0x3d643599	0.055715177
23	0xbe7b7884	-0.24557692
24	0xbd0ca527	-0.03433719
25	0x3e8deeee	0.2772135
26	0x3e1208d7	0.14261185
27	0x3e11b3f4	0.14228803
28	0xbdf57fe8	-0.11987287
29	0x3d86b04a	0.06576593
30	0xbc9fc9fe	-0.019505497
31	0x3d477324	0.04869379
32	0xbd412966	-0.04715862
33	0x3e37b859	0.17941417
34	0x3e69011d	0.22754331
35	0x3da4e54a	0.08051546
36	0xbd1cc573	-0.03827424
37	0xbe4b7539	-0.19868936
38	0x3e2d2c30	0.16911387
39	0x3cf10831	0.029422851
40	0x3e906dba	0.28208715
41	0xbce3f2ec	-0.027825795
42	0xbe269862	-0.16269067
43	0x3e18115a	0.14850369
44	0xbdf90102	-0.12158395
45	0x3e1e93fc	0.15486139
46	0x3df08492	0.11744036
47	0xbdf88788	-0.121352255
48	0xbd100cd2	-0.035168476
49	0xbdfa2d2a	-0.122156456
50	0x3dd7dcf7	0.105401926
51	0xbd20fc4f	-0.03930312
52	0xbbda6911	-0.006665357
53	0x3d2e1654	0.042501763
54	0xbe4078f1	-0.18796135
55	0xbe3630aa	-0.17792001
56	0xbdf140da	-0.117799476
57	0x3e8ea2f7	0.27858707
58	0xbe6fb44b	-0.2340862
59	0x3ddc3dbb	0.10753962
60	0x3ceffcc2	0.029295329
61	0xbf449eaa	-0.768046
62	0x3ce73e34	0.028227903
63	0x3e0621cb	0.13098828
64	0x3ca6a69c	0.020343117
65	0xbc8f9a34	-0.017529584
66	0x3e90952a	0.28238803
67	0xbdb509a5	-0.0883973
68	0x3cd2a1f4	0.02571199
69	0x3e275177	0.1633967
70	0xbe5ff1ea	-0.21869627
71	0xbc6702b7	-0.014099768
72	0xbe71f94b	-0.23630254
73	0x3c29854a	0.01034672
74	0xbdf9fe8d	-0.12206755
75	0x3e2dab1a	0.16959801
76	0x3e9319ed	0.28730717
77	0x3df8fac1	0.121572025
78	0xbe1fd416	-0.15608248
79	0x3e1176be	0.14205453
80	0x3e5d73d6	0.21626219
81	0x3e9245dc	0.28568923
82	0x3ca0fb0a	0.019650955
83	0xbc8eb607	-0.017420782
84	0x3cbdb18b	0.023155948
85	0x3e6246ee	0.2209737
86	0x3dbfc988	0.09364611
87	0x3dffc257	0.12488239
88	0xbeee9577	-0.46598408
89	0xbcf884a5	-0.030336687
90	0xbd4e6273	-0.050386857
91	0xbe045530	-0.12923121
92	0x3e496180	0.196661
93	0x3e2dc671	0.1697023
94	0xbe1ef935	-0.15524752
95	0x3e448f7d	0.19195361
96	0xbdc3817e	-0.09546183
97	0xbdc95c15	-0.098320164
98	0x3e19eed5	0.15032513
99	0xbe227c60	-0.15867758
100	0x3d3afa58	0.045648903
101	0xba91505b	-0.001108657
102	0xbd2484d5	-0.04016574
103	0x3e6756bd	0.22591682
104	0xbdbe09d6	-0.0927922
105	0xbe999dd4	-0.30003226
106	0xbe4b13ce	-0.19831774
107	0xbb12ce72	-0.0022400883
108	0x3ccc8745	0.024966845
109	0xbde1265f	-0.10993647
110	0xbda59a1d	-0.080860354
111	0x3ccd0985	0.025028953
112	0x3e634816	0.22195467
113	0x3d92be4f	0.07165205
114	0xbea3014c	-0.31836927
115	0xbe5f0022	-0.21777394
116	0xbdaeecb8	-0.08541244
117	0xbddb442b	-0.107063614
118	0xbdb63e85	-0.088986434
119	0xbc8710e8	-0.016487554
120	0x3dd9d0a8	0.10635501
121	0x3d746e80	0.059675694
122	0x3d789e2b	0.060697716
123	0xbad91749	-0.0016562726
124	0xbdeb07cd	-0.11476097
125	0x3dfc6d55	0.12325541
126	0x3d2ee654	0.042700127
127	0xbe153626	-0.14571437
